chkpt/my.pt (torch, 691948 bytes, 15 tensors)

weight f4 [9992, 1]
-0.57017606 0.12037315 0.54629725 -0.74110955 -1.8755425 -0.34587798 0.66789186 -0.008527093
-1.5137839 0.3552757 1.7621747 -0.7232886 0.39124128 0.40510112 0.5142346 1.5375799
1.7133093 0.3576085 -0.35591155 1.5575192 -1.1882521 1.162506 0.6525867 1.0566125
1.1334182 0.75065506 1.6123561 -1.3029196 -0.9611834 0.5538651 -1.4152727 -1.626053
0.38512313 -0.22226825 -0.7490516 -0.18734162 0.91688085 0.99822396 0.50164706 0.47952366
-1.7257531 1.1168177 0.36325577 0.6657527 -2.4042823 0.53065866 0.67974126 0.57843786
0.05506204 0.5649481 -1.8225174 0.31499016 0.060285628 0.5569344 0.29860055 0.9882925
-0.33318147 1.4254553 -0.17399321 -0.47735146 0.45442107 0.8875083 -0.19465889 0.4371863
1.1716995 -0.74447185 1.0192153 1.5842402 1.1915426 0.29313806 -0.094366245 0.09106827
0.033481393 -0.69683874 -0.2535696 -0.32184765 -0.46346194 0.83492994 -0.012328923 -1.2878191
2.6347947 -0.86842626 -1.1138471 0.6440821 -1.521538 -0.4119014 0.15583222 0.1110253
2.4834218 1.2692488 1.0527655 -2.246855 -0.22674295 0.78230965 0.4891664 0.003767814
1.828838 -0.82314277 -1.0581938 -0.6575554 -1.2353262 -1.9650406 -1.3837433 0.14552955
-0.004187334 0.27913573 0.33927217 -0.5041804 -0.026265046 0.22636819 -0.77609974 -0.824502
-1.01238 0.9550996 -0.1920255 2.214573 1.0045489 -0.37915564 -0.96136934 -0.77320254
0.5721296 -0.402054 -0.7174492 0.49383125 -0.12629189 0.41944256 1.0832502 0.89586604
1.3927866 1.9175224 0.9531309 -0.71651125 0.37820202 -1.2896452 3.3816206 0.65609443
1.0391281 0.5637979 0.4111095 -0.26317692 -1.6047534 -0.29379538 -0.26688707 -1.0942882
1.4444 -0.7312448 -0.46944964 -0.8984301 2.3341012 0.426258 1.5303395 0.79981947
-0.4083834 0.25428644 -1.3191911 0.26091298 0.933421 -0.35775706 -0.8363737 1.3384588
-0.13146524 0.88470817 -0.29637757 -0.16649672 -0.51296633 0.7041383 1.8241813 0.7159242
1.2635413 0.6297987 -0.79132164 0.7676064 -0.1559974 -1.674602 -1.6801754 0.50622976
1.2468755 0.2943828 0.9307924 -0.40932044 -0.25536168 0.9194219 0.67343616 0.714147
0.414225 -1.5755439 1.5419418 1.2827168 -0.43242794 -1.1807343 -0.62267566 -0.28074324
1.2872387 0.49939767 0.77449286 0.023854217 0.41900715 -3.2843688 -1.115282 -0.15135899
-0.19517055 0.1361464 0.2023467 1.314319 -0.69394064 1.871471 0.03671259 1.1043919
-1.3476447 -1.8211082 -0.504912 0.9583998 -1.7346202 -0.37972197 0.5403937 -0.11250448
0.37764588 0.099198096 0.7748723 -0.24011792 0.5535868 -1.3178681 -0.5220899 0.49232358
1.1644721 0.30558336 -0.055597268 0.8513099 -1.0397263 0.38278344 0.31687543 0.16801898
0.2638627 0.5998105 -0.73691475 0.13902465 -0.13095623 -1.0814458 -1.3600373 -0.22433202
0.9772072 -0.22265182 0.30595374 1.0367268 -1.0774931 0.4733216 -0.15829042 -1.3612304
0.15882385 0.0057704407 0.97438556 0.15254141 -0.64920866 1.5630553 0.2718579 0.39354676
00000000: 0ff7 11bf 3386 f63d 23da 0b3f 5bb9 3dbf
00000010: c711 f0bf eb16 b1be f6fa 2a3f 38b5 0bbc
00000020: acc3 c1bf b2e6 b53e f18e e13f 7129 39bf
00000030: c750 c83e 6a69 cf3e e1a4 033f 6bcf c43f
00000040: b84d db3f 7618 b73e 0a3a b6be ca5c c73f
00000050: a518 98bf ffcc 943f ec0f 273f 143f 873f
00000060: d913 913f ee2a 403f af61 ce3f 12c6 a6bf
00000070: 1e10 76bf 1aca 0d3f a827 b5bf 8122 d0bf
00000080: dc2e c53e 4a9a 63be d8c1 3fbf 7bd6 3fbe
00000090: b4b8 6a3f 9b8b 7f3f f16b 003f 2084 f53e
000000a0: 7ae5 dcbf e2f3 8e3f a9fc b93e c56e 2a3f
000000b0: c3df 19c0 3fd9 073f 8603 2e3f 8114 143f
000000c0: bc88 613d 70a0 103f 4048 e9bf 6446 a13e
000000d0: 10ee 763d 4193 0e3f 2ce2 983e bd00 7d3f
000000e0: c396 aabe 5275 b63f 472b 32be 6967 f4be
000000f0: e1a9 e83e be33 633f a954 47be e2d6 df3e
00000100: 40fa 953f b595 3ebf a675 823f 62c8 ca3f
00000110: 7884 983f 3116 963e 1743 c1bd 0082 ba3d
00000120: c923 093d 0664 32bf e0d3 81be 37c9 a4be
00000130: e24a edbe f8bd 553f 40ff 49bc 42d7 a4bf
00000140: 7aa0 2840 2f51 5ebf 8b92 8ebf 91e2 243f
00000150: c2c1 c2bf bee4 d2be 7b92 1f3e 3c61 e33d
00000160: 62f0 1e40 bf76 a23f 05c1 863f 79cc 0fc0
00000170: 4e2f 68be 7245 483f 0574 fa3e 6eed 763b
00000180: 5d17 ea3f 7cb9 52bf e572 87bf 8d55 28bf
00000190: 2b1f 9ebf 7386 fbbf 801e b1bf b305 153e
000001a0: e735 89bb e1ea 8e3e 15b5 ad3e f711 01bf
000001b0: cb29 d7bc 10cd 673e 79ae 46bf 9012 53bf
000001c0: ab95 81bf 6881 743f 55a2 44be 90bb 0d40
000001d0: 0f95 803f b020 c2be 4d1c 76bf 9af0 45bf
000001e0: 1677 123f 06da cdbe c0aa 37bf 73d7 fc3e
000001f0: a952 01be 2dc1 d63e f1a7 8a3f 7a57 653f
00000200: d546 b23f 6071 f53f 6300 743f 486d 37bf
00000210: b2a3 c13e 1813 a5bf 796c 5840 cef5 273f
00000220: 2602 853f 0f55 103f f27c d23e 20bf 86be
00000230: 8f68 cdbf 596c 96be 6ca5 88be a311 8cbf
00000240: 19e2 b83f dc32 3bbf b45b f0be 84ff 65bf
00000250: ea61 1540 7d3e da3e 2ae2 c33f f8c0 4c3f
00000260: a117 d1be d531 823e 41db a8bf 6396 853e
00000270: aef4 6e3f ef2b b7be 961c 56bf 9e52 ab3f
00000280: d39e 06be 3c7c 623f cdbe 97be 1e7e 2abe
00000290: c351 03bf 6842 343f c67e e93f cf46 373f
000002a0: b9bb a13f 7d3a 213f 0e94 4abf da81 443f
000002b0: c8bd 1fbe 5c59 d6bf fd0f d7bf 4698 013f
000002c0: 9e99 9f3f 58b9 963e 6948 6e3f 7392 d1be
000002d0: c4be 82be 3c5f 6b3f 5066 2c3f 56d2 363f
000002e0: 4d15 d43e 6cab c9bf 595e c53f 1030 a43f
000002f0: 3267 ddbe 4d22 97bf ac67 1fbf 94bd 8fbe
00000300: 3dc4 a43f 0db1 ff3e 2a45 463f eb69 c33c
00000310: 1b88 d63e 1933 52c0 90c1 8ebf dafd 1abe
00000320: cada 47be f669 0b3e f933 4f3e 9b3b a83f
00000330: 18a6 31bf 5d8c ef3f f15f 163d b75c 8d3f
00000340: 9f7f acbf 131a e9bf ea41 01bf b059 753f
00000350: 0908 debf eb6a c2be 3e57 0a3f c068 e6bd
00000360: cd5a c13e 5f28 cb3d 085e 463f 79e1 75be
00000370: ddb7 0d3f e7af a8bf afa7 05bf d611 fc3e
00000380: 6c0d 953f 6c75 9c3e f6b9 63bd 72ef 593f
00000390: c015 85bf 31fc c33e 7f3d a23e 2b0d 2c3e
000003a0: 0319 873e 2e8d 193f 72a6 3cbf 7a5c 0e3e
000003b0: 6419 06be d16c 8abf b415 aebf 4bb7 65be
000003c0: 402a 7a3f d7fe 63be f8a5 9c3e 77b3 843f
000003d0: 4beb 89bf 3557 f23e e216 22be cc3c aebf
000003e0: b8a2 223e f715 bd3b 5571 793f d133 1c3e
000003f0: 8a32 26bf 3212 c83f f530 8b3e f67e c93e

weight f4 [9992, 16]
-0.025862774 -0.03755603 -0.030886292 -0.0108588915 0.033034448 0.0029733127 0.028774032 -0.013083899
0.013429136 -0.010260446 -0.0086199455 0.023187736 0.012523526 -0.014590421 -0.0072542755 -0.025470348
0.0041496335 0.0030725037 0.024571868 -0.007666939 -0.012133004 0.018836863 -0.02357252 0.014468493
-0.027707368 0.022188237 0.004892519 -0.027415711 -0.0065371827 0.00020837858 0.00039819587 0.011810572
0.006054381 0.017333353 0.011572745 -0.028897438 -0.005360414 0.00015969545 0.017602496 0.003998683
-0.010233835 0.010403203 -0.01838953 0.020015685 -0.011538347 -0.014503185 -0.019198857 -0.023750372
-0.02405672 -0.023529628 -0.0230424 -0.012717835 0.023882017 -0.0068753907 0.012903396 -0.02350301
0.02335287 -0.02333271 -0.026070159 0.013230289 0.0140096005 0.014183058 0.009764287 -0.0017330057
-0.0019031466 0.0031997175 -0.03562024 -0.0511281 0.026639396 0.019160325 0.020480325 -0.024192542
0.010986346 -0.009434731 -0.011709714 0.0417911 6.0779566e-05 -0.021425622 -0.008687066 -0.011769856
-0.01489416 -0.017158331 -0.017708313 -0.039834104 0.020530552 -0.0070179664 0.021565115 -0.008092171
0.006922758 -0.007841606 0.015362343 0.013575656 -0.00071449956 -0.010774789 -0.008639902 0.016441576
-0.018304793 -0.020244585 -0.0046531674 -0.017931264 0.0071847406 -0.01630532 0.022292286 -0.010955808
0.00041446238 -0.00024870728 0.010138929 0.016445016 0.005931454 -0.0051063416 0.00015256768 0.0028881729
-0.0030007616 -0.015835319 -0.02967279 0.014937327 -0.005709296 -0.008229872 0.023789788 0.007052117
-0.0034778765 -0.005506465 0.01537407 0.026876967 0.016361136 -0.007745845 -0.0047847335 0.006870455
-0.031650677 0.0050150626 -0.008502537 0.017279122 0.03693178 -0.028455863 0.042582307 0.016814664
0.035778325 -0.028501904 0.0006740592 -0.0393983 0.027513087 0.023940312 0.02532126 0.01371258
-0.03875471 -0.031762093 -0.0012447537 -0.011153695 0.028954403 -0.03406896 0.005494273 -0.025703736
-0.014641223 0.017652981 0.012634419 -0.012888397 0.0016200753 0.013029902 0.019002311 -0.0011899093
0.0394768 0.046000794 0.05321806 0.052956354 -0.05272392 0.055424865 -0.017845726 0.032426
-0.043313567 0.03418758 0.024880022 -0.016959175 -0.022078263 0.024105271 -0.017518988 -0.01763561
6.631235e-05 0.01392961 -0.0073853033 0.006624891 -0.002285205 0.0029488816 0.021862326 -0.021026451
0.013427563 -0.005619252 -0.002249573 0.004889334 0.017032016 0.005937895 -0.032779012 -0.017128946
0.015181972 0.03468774 0.029910672 0.050373193 -0.02045902 0.03544833 -0.047406003 0.03358351
-0.0048865 0.0022288382 0.0013293513 -0.025192106 -0.015203702 0.002592146 0.019119652 0.017960224
0.053173702 0.017334199 0.03187408 0.023749651 -0.027294803 0.025849905 -0.044638608 0.015817
-0.016791249 0.013073571 0.017092595 -0.023628492 -0.014650784 -0.012368444 -0.024737632 -0.016710788
0.023626413 -0.010096376 0.0069176364 0.020034403 -0.0015279602 -0.010271876 -0.018351331 0.023810932
0.0011404093 0.0065374994 -0.018250713 -0.009861425 -0.0099410275 -0.003499037 0.031542484 0.01246094
0.041966926 0.04121801 0.01897908 0.019043839 -0.035665262 0.028321957 -0.03866161 0.019861275
-0.046513136 0.044960573 0.011976953 -0.012071377 -0.006506654 -0.010420411 -0.027749335 -0.0045592515
00000000: 2bde d3bc 5ad4 19bd 4005 fdbc 7ee9 31bc
00000010: 214f 073d e9db 423b 85b7 eb3c da5d 56bc
00000020: e105 5c3c 6e1b 28bc ac3a 0dbc 35f4 bd3c
00000030: 7a2f 4d3c a90c 6fbc 46b5 edbb 31a7 d0bc
00000040: a6f9 873b 0f5c 493b f14a c93c f23a fbbb
00000050: 82c9 46bc c44f 9a3c 281b c1bc 420d 6d3c
00000060: 90fa e2bc 1bc4 b53c 6d51 a03b ea96 e0bc
00000070: dd35 d6bb 3380 5a39 f2c4 d039 2181 413c
00000080: d463 c63b adfe 8d3c 9c9b 3d3c 52ba ecbc
00000090: 69a6 afbb ec73 2739 1c33 903c 6207 833b
000000a0: d1ab 27bc 3272 2a3c a4a5 96bc eff7 a33c
000000b0: 560b 3dbc c49e 6dbc ec46 9dbc 2490 c2bc
000000c0: 9912 c5bc 35c1 c0bc 6ac3 bcbc 775e 50bc
000000d0: 38a4 c33c f54a e1bb c468 533c 6289 c0bc
000000e0: 854e bf3c 3d24 bfbc 1691 d5bc dbc3 583c
000000f0: 8688 653c 0f60 683c 63fa 1f3c 0626 e3ba
00000100: 0173 f9ba 5ab2 513b 87e6 11bd b36b 51bd
00000110: dd3a da3c 1df6 9c3c 5bc6 a73c 702f c6bc
00000120: 1300 343c 2194 1abc 1ada 3fbc 252d 2b3d
00000130: 90ed 7e38 c984 afbc 3254 0ebc 5bd6 40bc
00000140: a306 74bc a18f 8cbc 0611 91bc 1629 23bd
00000150: b02f a83c f8f6 e5bb 53a9 b03c 0695 04bc
00000160: 4ed8 e23b 147a 00bc 56b2 7b3c 6e6c 5e3c
00000170: 414d 3bba be88 30bc 608e 0dbc 7cb0 863c
00000180: eff3 95bc f9d7 a5bc 9979 98bb 96e4 92bc
00000190: f96d eb3b bc92 85bc 509e b63c fd7f 33bc
000001a0: 334c d939 ed64 82b9 c01d 263c b3b7 863c
000001b0: a45c c23b 1953 a7bb 93fa 1f39 8047 3d3b
000001c0: 6da8 44bb 12b9 81bc 5a14 f3bc b1bb 743c
000001d0: 0c15 bbbb 96d6 06bc cde2 c23c 7215 e73b
000001e0: 16ed 63bb 946f b4bb 86e3 7b3c 162d dc3c
000001f0: ca07 863c dbd0 fdbb 41c9 9cbb 8e21 e13b
00000200: 24a4 01bd 6555 a43b 3a4e 0bbc f28c 8d3c
00000210: c745 173d 451c e9bc c96a 2e3d e8be 893c
00000220: 4b8c 123d d37c e9bc 59b3 303a 1d60 21bd
00000230: 2063 e13c 791e c43c 886e cf3c bbaa 603c
00000240: 42bd 1ebd f818 02bd 0127 a3ba fdbd 36bc
00000250: c931 ed3c e58b 0bbd 4d09 b43b a490 d2bc
00000260: bde1 6fbc fc9c 903c 9800 4f3c db29 53bc
00000270: b558 d43a 5f7b 553c bcaa 9b3c bbf6 9bba
00000280: 6db2 213d 546b 3c3d 2efb 593d c3e8 583d
00000290: 0af5 57bd 2f05 633d 3331 92bc 20d1 043d
000002a0: 9169 31bd 4708 0c3d 30d1 cb3c f8ed 8abc
000002b0: 79dd b4bc 6b78 c53c fb83 8fbc 8e78 90bc
000002c0: 2c11 8b38 0539 643c 6a00 f2bb 9d15 d93b
000002d0: 61c3 15bb 0642 413b 9f18 b33c aa3f acbc
000002e0: 48ff 5b3c b421 b8bb 926d 13bb b536 a03b
000002f0: ba86 8b3c ac92 c23b 4943 06bd 0152 8cbc
00000300: cebd 783c bb14 0e3d 3a07 f53c 1f54 4e3d
00000310: ad99 a7bc 4532 113d cc2c 42bd dd8e 093d
00000320: ef1e a0bb b311 123b a13d ae3a ad5f cebc
00000330: f318 79bc fee0 293b d1a0 9c3c 5221 933c
00000340: abcc 593d 7300 8e3c 658e 023d a18e c23c
00000350: 5a99 dfbc 2ec3 d33c f9d6 36bd a792 813c
00000360: cd8d 89bc 8832 563c c505 8c3c 8a90 c1bc
00000370: d809 70bc 04a5 4abc 93a6 cabc 10e5 88bc
00000380: 2e8c c13c 456b 25bc 57ad e23b 301f a43c
00000390: d645 c8ba 5f4b 28bc 8855 96bc 250f c33c
000003a0: c979 953a 8538 d63b 8582 95bc d091 21bc
000003b0: b1df 22bc 1950 65bb b132 013d f828 4c3c
000003c0: 83e5 2b3d 37d4 283d 047a 9b3c d301 9c3c
000003d0: bd15 12bd 7303 e83c a35b 1ebd 1db4 a23c
000003e0: 8f84 3ebd 9428 383d fb3a 443c 06c7 45bc
000003f0: c535 d5bb 5fba 2abc 9352 e3bc c665 95bb

weight f4 [16, 32]
-0.0074039917 0.026124805 0.10743082 0.15787423 -0.011344959 0.11969186 -0.18425845 0.09611311
-0.009968318 -0.011785818 -0.02122064 -0.16009559 -0.002636351 -0.09683307 -0.060414016 0.043096572
0.009034976 -0.09295626 -0.14835045 -0.039056715 0.14943089 -0.03138695 0.14454225 0.061238084
0.2444872 0.043698 -0.040779267 -0.032668397 0.06188411 -0.1739411 -0.028443232 -0.022746261
-0.066846885 -0.09857729 -0.0336595 -0.054775804 0.19679122 0.105314165 0.18135522 -0.16573894
0.0030836612 -0.16202247 -0.08807924 0.105820596 0.07232421 -0.13324647 -0.08962485 0.02482849
0.1049071 -0.029706743 0.18074045 -0.086531125 -0.20270659 0.014417305 -0.0062934165 -0.04091022
-0.014682766 0.15614663 -0.08753001 -0.14332834 -0.02619956 0.056352027 -0.15747716 0.06513637
-0.15192716 -0.15494916 -0.17158712 -0.13190036 0.10541664 -0.16747272 0.054417532 -0.026191121
-0.0041009025 0.08990445 -0.11517676 0.082442306 -0.011191077 -0.019484743 -0.02533833 -0.07872827
0.068427205 0.207921 0.10438702 0.17372277 0.09779547 0.13917397 -0.13325875 -0.124363706
-0.22574744 0.05864919 -0.10315469 -0.025345622 -0.15607797 0.039164346 0.049113892 -0.0585146
0.07417732 0.0855518 0.11405476 0.17002425 -0.009158072 0.13795632 -0.13926984 0.067573726
0.06202144 0.09819651 -0.04125301 0.02143474 0.05075846 0.024586432 0.06240331 -0.008256512
0.085131295 0.015956292 -0.16826911 0.021531483 0.04684927 0.108529925 -0.016850935 0.033909433
0.20204288 -0.069341205 0.048403803 0.05600753 0.023419024 -0.22340085 -0.022538198 0.12905842
0.1833879 0.073739335 0.13214073 -0.07136568 -0.09447598 0.14296323 -0.19204403 -0.019465705
-0.06562177 0.046345882 0.053941775 -0.08321939 0.06287418 -0.031044925 0.02125862 -0.06211258
0.023669887 -0.19148846 -0.11444979 -0.06614364 0.08814458 0.06898836 0.08793113 -0.064033695
0.05317272 -0.14711867 0.025366368 0.13402493 0.07304546 -0.13771941 -0.011260148 -0.03822626
-0.011326378 -0.18572469 -0.22173092 -0.05661157 0.081807755 -0.16472138 -0.027048996 -0.0282507
0.17984988 -0.038358275 0.07065567 -0.06604082 0.055497337 0.10395298 -0.009006971 -0.05909883
0.029007617 0.011997886 0.21089827 -0.06842498 -0.13007213 -0.13402843 -0.20261484 -0.10115065
-0.12974696 0.09230579 -0.13539748 0.021990772 -0.038002077 0.021724986 -0.05103244 -0.114087984
0.055377286 -0.16727583 0.03626307 -0.12213784 0.19625074 0.017217731 0.107489 -0.13039695
0.1255859 -0.11984086 0.022650743 -0.007795633 0.12385044 -0.06925812 -0.00761918 -0.025021918
0.086322896 0.012233695 0.12731613 -0.10524309 -0.18442114 -0.08955841 -0.028048728 0.0823409
0.03676344 -0.012085546 0.07426117 0.084637806 -0.13689731 0.06815532 0.029882807 0.11650059
-0.16272941 -0.16502285 -0.069202825 0.036831092 0.19158302 -0.08510271 0.066236146 0.0658788
0.055079784 -0.054890715 0.07844056 -0.0663339 0.051067755 0.05805561 0.10496231 0.024131402
0.0024326802 0.10747854 0.001116373 -0.02781 -0.09029668 -0.07786087 -0.13995038 0.047652774
-0.22682612 0.08547933 0.15327273 0.003393658 0.023974316 0.044361304 -0.17045778 -0.05620652
00000000: 2f9d f2bb b003 d63c b104 dc3d c8a9 213e
00000010: 35e0 39bc 0221 f53d 3fae 3cbe f3d6 c43d
00000020: 2852 23bc 4e19 41bc e8d6 adbc 19f0 23be
00000030: a1c6 2cbb 6b50 c6bd b074 77bd 0886 303d
00000040: 7007 143c da5f bebd 2ee9 17be eff9 1fbd
00000050: 6904 193e 9a8f 00bd e202 143e c9d4 7a3d
00000060: da5a 7a3e adfc 323d 2908 27bd 4ccf 05bd
00000070: 317a 7d3d 9e1d 32be c801 e9bc 5e56 babc
00000080: 05e7 88bd e4e2 c9bd 8bde 09bd 985c 60bd
00000090: a383 493e f4ae d73d 2fb5 393e 78b7 29be
000000a0: 4017 4a3b 38e9 25be e362 b4bd 78b8 d83d
000000b0: b71e 943d c371 08be 3c8d b7bd 1e65 cb3c
000000c0: 89d9 d63d 8e5b f3bc 0614 393e 3b37 b1bd
000000d0: 5192 4fbe 8f36 6c3c 0139 cebb 7a91 27bd
000000e0: fc8f 70bc e7e4 1f3e ef42 b3bd aac4 12be
000000f0: 76a0 d6bc 62d1 663d b141 21be 3866 853d
00000100: cb92 1bbe feaa 1ebe 89b4 2fbe e310 07be
00000110: aee4 d73d f87d 2bbe ebe4 5e3d c38e d6bc
00000120: dd60 86bb d31f b83d cbe1 ebbd 83d7 a83d
00000130: c75a 37bc 789e 9fbc 5492 cfbc 4a3c a1bd
00000140: 9023 8c3d 3ee9 543e ddc8 d53d 62e4 313e
00000150: fe48 c83d 9f83 0e3e fb74 08be 66b2 febd
00000160: 562a 67be 223a 703d c442 d3bd 9fa1 cfbc
00000170: e7d2 1fbe cb6a 203d a62b 493d 01ad 6fbd
00000180: 47ea 973d c835 af3d 8b95 e93d d61a 2e3e
00000190: bd0b 16bc 6c44 0d3e c19c 0ebe 1864 8a3d
000001a0: 320a 7e3d 401b c93d ebf8 28bd e897 af3c
000001b0: 1ae8 4f3d 7c69 c93c 9d9a 7f3d 5246 07bc
000001c0: 5159 ae3d c5b6 823c bd4e 2cbe cb62 b03c
000001d0: 05e5 3f3d f044 de3d f90a 8abc 9ee4 0a3d
000001e0: 54e4 4e3e c302 8ebd 1143 463d 2768 653d
000001f0: 41d9 bf3c 31c3 64be 07a2 b8bc e427 043e
00000200: 0aca 3b3e a604 973d e64f 073e 2b28 92bd
00000210: 9f7c c1bd f464 123e 31a7 44be 8b76 9fbc
00000220: b564 86bd 2ed5 3d3d 0df2 5c3d ed6e aabd
00000230: 2ec4 803d ed51 febc 8f26 ae3c c369 7ebd
00000240: 5ae7 c13c 8d15 44be a764 eabd 5176 87bd
00000250: 2585 b43d c549 8d3d 3c15 b43d 1924 83bd
00000260: a3cb 593d 47a6 16be 21cd cf3c d53d 093e
00000270: dc98 953d 5106 0dbe 7c7c 38bc 2493 1cbd
00000280: 4692 39bc 9d2e 3ebe 6e0d 63be 89e1 67bd
00000290: d38a a73d b9ac 28be db95 ddbc 036e e7bc
000002a0: 912a 383e 911d 1dbd ebb3 903d 6940 87bd
000002b0: 2d51 633d 4de5 d43d f991 13bc 9d11 72bd
000002c0: 62a1 ed3c c892 443c b7f5 573e 6522 8cbd
000002d0: a131 05be c03e 09be 447a 4fbe 1228 cfbd
000002e0: 63dc 04be d10a bd3d a3a5 0abe fe25 b43c
000002f0: 11a8 1bbd 99f8 b13c 6407 51bd f6a6 e9bd
00000300: 4bd3 623d 5b4a 2bbe 9688 143d 6723 fabd
00000310: f4f5 483e 330c 8d3c 3123 dc3d c786 05be
00000320: 9799 003e 206f f5bd 0d8e b93c 8272 ffbb
00000330: 4da5 fd3d 34d7 8dbd 50aa f9bb c4fa ccbc
00000340: 0fca b03d d66f 483c 295f 023e b089 d7bd
00000350: e5d8 3cbe 666a b7bd 72c6 e5bc 59a2 a83d
00000360: 4395 163d 7402 46bc 3e16 983d 9656 ad3d
00000370: cf2e 0cbe 0495 8b3d cacc f43c dd97 ee3d
00000380: 8aa2 26be c0fb 28be 36ba 8dbd 33dc 163d
00000390: 572e 443e 544a aebd d1a6 873d 77eb 863d
000003a0: 579b 613d 16d5 60bd 72a5 a03d 11da 87bd
000003b0: 6c2c 513d b8cb 6d3d 7bf6 d63d 38af c53c
000003c0: 9a6d 1f3b b51d dc3d 4353 923a ccd1 e3bc
000003d0: 77ed b8bd 8575 9fbd 274f 0fbe 8e2f 433d
000003e0: 1b45 68be c90f af3d 87f3 1c3e 2268 5e3b
000003f0: c965 c43c 33b4 353d 7c8c 2ebe cf38 66bd

bias f4 [16]
-0.001731663 -0.0003024173 0.016089913 -0.012331873 0.00196052 0.00020947919 0.0026862372 -0.024830056
-0.00041446602 -0.0003599126 0.003447162 0.000682422 -0.0036751365 0.0017820732 -0.0016649074 0.00077845633
00000000: f8f8 e2ba c38d 9eb9 fece 833c a00b 4abc
00000010: 117c 003b a4a7 5b39 950b 303b 6768 cbbc
00000020: b04c d9b9 a7b2 bcb9 c8e9 613b 91e4 323a
00000030: 8fda 70bb 7494 e93a 0639 daba 5211 4c3a

weight f4 [16]
1.1194335 0.9698898 0.98793155 0.95595723 1.0289943 0.97490644 0.94262123 0.96517915
0.9312619 0.9407568 1.0367844 0.96443653 1.0747355 0.9957288 1.0150162 1.0964535
00000000: 9949 8f3f b34a 783f 15e9 7c3f 9db9 743f
00000010: 16b6 833f 7893 793f a04f 713f fb15 773f
00000020: 2e67 6e3f 70d5 703f 5ab5 843f 50e5 763f
00000030: ef90 893f 15e8 7e3f 0dec 813f 9758 8c3f

bias f4 [16]
-0.023873946 -0.033070132 0.022091169 -0.2638375 -0.07525493 -0.0873214 0.02005435 -0.037998322
-0.07319684 -0.063358165 -0.050076976 -0.048211776 -0.023202427 -0.1533256 -0.043424584 -0.04429494
00000000: 4b93 c3bc 8c74 07bd 8af8 b43c b515 87be
00000010: 421f 9abd 90d5 b2bd 0549 a43c 21a4 1bbd
00000020: 3ae8 95bd edc1 81bd 841d 4dbd b679 45bd
00000030: 0413 bebc 6301 1dbe fadd 31bd 9c6e 35bd

running_mean f4 [16]
-0.004135133 -5.4831627e-05 0.018191962 -0.01564212 -3.519142e-05 0.002613795 0.0016026159 -0.025095625
0.00036544408 0.00035696925 0.005433161 0.0030029747 -0.006545961 0.00013922324 0.0006193589 -0.0006539907
00000000: 0280 87bb 03fb 65b8 4f07 953c e723 80bc
00000010: 809a 13b8 344c 2b3b de0e d23a 5795 cdbc
00000020: 1399 bf39 9a27 bb39 a808 b23b 8ecd 443b
00000030: 807f d6bb 74fc 1139 795c 223a 9370 2bba

running_var f4 [16]
0.0007627977 0.0006632271 0.00093429687 0.000719451 0.00085184065 0.0008799413 0.00037190947 0.00059529825
0.0004506001 0.00029952833 0.00076221453 0.0006865079 0.0011638439 0.00081103627 0.0010278798 0.0010516829
00000000: 7df6 473a 6bdc 2d3a 9aeb 743a 8a99 3c3a
00000010: 0f4e 5f3a dcab 663a d8fc c239 ca0d 1c3a
00000020: 863e ec39 030a 9d39 5acf 473a c4f6 333a
00000030: 1f8c 983a b99b 543a ecb9 863a 9fd8 893a

weight f4 [16, 16]
0.16713376 -0.047244005 -0.028247295 -0.00033292122 0.259042 0.05082888 -0.06877658 -0.03388459
-0.12296148 -0.11697605 0.008610589 -0.0027622355 0.2670279 0.22044715 0.12219185 0.17613828
0.21011785 -0.1476361 -0.1489497 0.2590142 -0.08923487 -0.014767022 -0.14569664 -0.18226668
-0.029424278 -0.10674542 0.012342092 -0.013527051 -0.00016034227 0.19466467 -0.04561708 0.19096456
-0.19725169 0.17855825 0.22436368 -0.041431807 -0.0031192987 0.14977597 -0.16725764 0.1635583
0.22748503 -0.014359449 0.04261606 -0.08488393 -0.22301085 -0.13547705 -0.13353047 -0.15132429
0.052626535 0.049250416 0.008512956 0.2735467 0.221052 0.0033758548 -0.17346643 -0.00048464898
-0.0007447829 -0.11923576 -0.056530334 -0.115843 0.25106853 0.20591639 -0.033740014 -0.12044387
-0.0039849537 0.015554311 -0.071694724 0.23670329 0.10206914 0.07590956 -0.15021126 -0.013384411
-0.048036575 -0.10802966 -0.068472184 -0.047562316 0.18283246 0.2631112 0.0837215 0.14821108
0.15984523 0.026721152 0.031658903 0.3297124 0.30349338 0.10109163 -0.18422492 -0.003130481
-0.09107589 -0.1337548 -0.034712683 -0.07153732 0.0064374767 -0.06302376 -0.082592815 0.14589065
-0.21741478 -0.10482965 0.1582628 -0.14160778 0.06593968 0.17654967 0.19221145 0.18413334
-0.08027363 0.028251993 0.123172544 0.10286925 -0.12290376 -0.12351422 0.007276738 -0.25424376
0.19766271 0.040165663 -0.103592105 0.17567056 0.21047717 0.03500091 -0.16145195 -0.09937329
0.05616839 -0.07689104 0.036856953 -0.029411975 0.08187708 0.28291255 0.035129182 0.20930897
-0.13574603 0.15347049 0.017823527 -0.04715619 -0.15128563 0.030802425 -0.109750144 -0.038379654
0.007454589 0.14048257 0.07290517 -0.029654576 -0.09502299 -0.2057753 0.16860904 -0.13032722
-0.21002324 0.21286827 0.09768721 0.028529372 -0.28961334 0.12510197 0.1983212 -0.033592794
0.09121825 0.31044242 0.15264654 0.09943959 -0.10407312 -0.059666052 0.26407203 0.07729158
-0.09031961 -0.07000737 0.12102156 -0.051179394 -0.16893487 0.0077286516 0.11935772 0.03459996
0.09479464 0.15598221 -0.001759329 -0.11726302 -0.19795181 -0.09374716 0.16252062 -0.10112186
0.10394155 0.21598583 0.24286069 -0.22903866 -0.36655897 0.2172226 0.08487174 0.19511619
0.15512359 0.15971419 -0.19005446 0.22334553 -0.21689333 -0.186656 0.25135496 0.102396175
-0.36325833 0.2358985 0.23636931 0.038028825 -0.14230357 0.10894407 -0.03522168 0.007418669
0.09846777 -0.04055267 0.09466911 0.20812726 -0.18143226 0.10108313 0.116298884 -0.055245668
-0.20388424 0.09735099 -0.07412855 0.06731612 -0.17887369 0.2507412 0.07046992 0.08935345
-0.07534581 0.20486875 0.0347841 0.20274416 -0.027811157 -0.2050528 -0.08995962 -0.17848948
-0.05323876 -0.04955675 0.12995152 -0.21244165 -0.25532255 -0.013689423 0.057952147 0.2380976
-0.031900458 -0.13315508 0.16700523 -0.12638426 -0.10062994 -0.037468597 0.046847332 -0.2077857
-0.10925659 -0.1300154 -0.17379902 -0.12488879 -0.10177241 -0.064809695 0.17379673 0.092481844
0.1829223 -0.07023287 0.22651152 0.1604718 -0.09423057 -0.21773046 0.17154346 -0.21525845
00000000: 1d25 2b3e ee82 41bd df66 e7bc ee8b aeb9
00000010: 27a1 843e f231 503d bcda 8cbd 91ca 0abd
00000020: 3ad3 fbbd 2491 efbd 6e13 0d3c 9f06 35bb
00000030: e2b7 883e e6bc 613e b83f fa3d 985d 343e
00000040: 2229 573e eb2d 17be 4586 18be 829d 843e
00000050: c6c0 b6bd 61f1 71bc 8031 15be 1ea4 3abe
00000060: 2f0b f1bc 589d dabd 7c36 4a3c 90a0 5dbc
00000070: 8d21 28b9 2d56 473e fad8 3abd 378c 433e
00000080: 59fc 49be f9d7 363e 98bf 653e 66b4 29bd
00000090: 266d 4cbb df5e 193e 9645 2bbe d47b 273e
000000a0: d6f1 683e e543 6bbc 2d8e 2e3d a0d7 adbd
000000b0: f55c 64be 7fba 0abe 36bc 08be c1f4 1abe
000000c0: ec8e 573d ceba 493d ed79 0b3c 500e 8c3e
000000d0: 755b 623e 723d 5d3b 2fa1 31be 7c18 feb9
000000e0: 893d 43ba e131 f4bd 5a8c 67bd 183f edbd
000000f0: 0e8c 803e bfdb 523e f832 0abd 47ab f6bd
00000100: 3794 82bb 82d7 7e3c afd4 92bd 5962 723e
00000110: a009 d13d 7976 9b3d fbd0 19be 4a4a 5bbc
00000120: 00c2 44bd a83e ddbd 253b 8cbd b4d0 42bd
00000130: 6f38 3b3e 83b6 863e 2e76 ab3d a5c4 173e
00000140: 78ae 233e 51e6 da3c c4ac 013d 10d0 a83e
00000150: 7c63 9b3e 2109 cf3d 75a5 3cbe c228 4dbb
00000160: ff85 babd 05f7 08be e32e 0ebd 2982 92bd
00000170: 78f1 d23b 9a12 81bd 6c26 a9bd 5c64 153e
00000180: fba1 5ebe edb0 d6bd a50f 223e a101 11be
00000190: 620b 873d 70c9 343e 14d3 443e 738d 3c3e
000001a0: 8066 a4bd b970 e73c e341 fc3d 1dad d23d
000001b0: f7b4 fbbd 06f5 fcbd b471 ee3b 3d2c 82be
000001c0: 1868 4a3e c084 243d 1928 d4bd fce2 333e
000001d0: 5487 573e 1d5d 0f3d a953 25be 3984 cbbd
000001e0: d310 663d 0d79 9dbd 51f7 163d 62f1 f0bc
000001f0: 2caf a73d ead9 903e 9ee3 0f3d 1755 563e
00000200: 0201 0bbe 5e27 1d3e a502 923c d926 41bd
00000210: 9fea 1abe 5e55 fc3c afc4 e0bd fc33 1dbd
00000220: a045 f43b aada 0f3e 4e4f 953d 27ee f2bc
00000230: 6a9b c2bd c3b6 52be d9a7 2c3e 8074 05be
00000240: 5510 57be 24fa 593e 3b10 c83d 6eb6 e93c
00000250: 3348 94be bb1a 003e b614 4b3e 9998 09bd
00000260: a2d0 ba3d 4ff2 9e3e 604f 1c3e fca6 cb3d
00000270: 4a24 d5bd 6464 74bd 7334 873e 0c4b 9e3d
00000280: 7df9 b8bd 0660 8fbd 27da f73d 7ca1 51bd
00000290: 43fd 2cbe a140 fd3b d271 f43d b0b8 0d3d
000002a0: b123 c23d cdb9 1f3e 4999 e6ba 9827 f0bd
000002b0: e1b3 4abe 83fe bfbd ce6b 263e fa18 cfbd
000002c0: 4fdf d43d 642b 5d3e 79b0 783e 1c89 6abe
000002d0: 9ead bbbe 9a6f 5e3e 3cd1 ad3d 8acc 473e
000002e0: b8d8 1e3e 1e8c 233e a39d 42be b1b4 643e
000002f0: 4919 5ebe c022 3fbe 99b1 803e 16b5 d13d
00000300: fffc b9be 608f 713e cc0a 723e 1dc4 1b3d
00000310: 07b8 11be 121e df3d 9c44 10bd 4e18 f33b
00000320: 78a9 c93d 8e1a 26bd e1e1 c13d 501f 553e
00000330: 61c9 39be ac04 cf3d 1c2e ee3d 4849 62bd
00000340: 08c7 50be f55f c73d b6d0 97bd 09dd 893d
00000350: aa2a 37be 2761 803e 8952 903d f1fe b63d
00000360: e74e 9abd 1dc9 513e c679 0e3d 2a9c 4f3e
00000370: 39d4 e3bc 5cf9 51be c03c b8bd f2c5 36be
00000380: e310 5abd 05fc 4abd 0312 053e 4e8a 59be
00000390: a3b9 82be 9a49 60bc 3b5f 6d3d dbcf 733e
000003a0: 0eaa 02bd ce59 08be 6b03 2b3e e06a 01be
000003b0: 1217 cebd ac78 19bd fde2 3f3d c6c5 54be
000003c0: ebc1 dfbd c222 05be 5ff8 31be b2c5 ffbd
000003d0: 0e6e d0bd f2ba 84bd c5f7 313e 1f67 bd3d
000003e0: fc4f 3b3e 40d6 8fbd a3f2 673e b852 243e
000003f0: f5fb c0bd bcf4 5ebe 17a9 2f3e b66c 5cbe

bias f4 [16]
-2.6463229e-06 1.1888335e-05 0.016203105 -2.3214865e-05 0.0064524706 -0.0024169825 0.0015343502 4.068481e-06
-0.02298275 -0.0022022931 -0.020169219 -0.00045397948 -0.016017398 0.0034603884 -0.012640876 -0.0035407448
00000000: 7b97 31b6 0374 4737 60bc 843c 8bbd c2b7
00000010: 3f6f d33b 3d66 1ebb 401c c93a fc83 8836
00000020: 5246 bcbc 5954 10bb eb39 a5bc 1804 eeb9
00000030: eb36 83bc afc7 623b ad1b 4fbc d70b 68bb

weight f4 [16]
1.1623069 1.090362 1.1274713 1.1984748 1.1520584 1.1755058 1.1336004 1.1644329
1.1033584 1.1621922 1.1458261 1.0982513 1.0697031 1.0809864 1.1217103 1.0976387
00000000: 79c6 943f fb90 8b3f fb50 903f 9f67 993f
00000010: a676 933f f976 963f d119 913f 230c 953f
00000020: d93a 8d3f b7c2 943f 6eaa 923f 8093 8c3f
00000030: 08ec 883f c35d 8a3f 3494 8f3f 6d7f 8c3f

bias f4 [16]
0.12905702 0.05492254 0.15310074 0.15400106 0.11969088 0.112735175 0.16762598 0.1319423
0.10799557 0.21472722 0.17189558 0.16037148 0.12934506 0.106481165 0.14005777 0.11630865
00000000: 8627 043e 75f6 603d 71c6 1c3e 74b2 1d3e
00000010: 7e20 f53d b3e1 e63d 25a6 2b3e e21b 073e
00000020: c82c dd3d 74e1 5b3e 6505 303e 6c38 243e
00000030: 0873 043e cc12 da3d 4e6b 0f3e 3b33 ee3d

running_mean f4 [16]
0.3438117 -0.030046636 -0.06809589 0.1358398 0.21303192 0.14878406 -0.0039191614 0.32228965
-0.16317534 0.34499994 -0.1013986 0.3145305 0.106752396 -0.039011676 -0.20526995 -0.108284906
00000000: 1608 b03e 5d24 f6bc dc75 8bbd 9719 0b3e
00000010: 0a25 5a3e d95a 183e 4f6c 80bb 2603 a53e
00000020: 7017 27be d5a3 b03e 12aa cfbd 240a a13e
00000030: 00a1 da3d b5ca 1fbd 4932 52be 7ac4 ddbd

running_var f4 [16]
0.54064256 0.5411947 0.4799947 0.41002086 0.39345893 0.42775255 0.5962187 0.58380455
0.36037034 0.9331451 0.3588315 1.1376511 0.6917183 0.4974684 0.39484173 0.50734717
00000000: 8d67 0a3f bc8b 0a3f dec1 f53e 41ee d13e
00000010: 7373 c93e 6202 db3e caa1 183f 3774 153f
00000020: 7682 b83e 99e2 6e3f c3b8 b73e 8d9e 913f
00000030: 7314 313f 2eb4 fe3e b228 ca3e 81e1 013f

weight f4 [1, 16]
-0.18231077 -0.29199198 0.21016993 -0.15499705 -0.17227148 -0.1674003 0.19272254 -0.18070385
0.29508615 0.1249315 0.18470335 0.22114964 0.28715152 0.31570652 0.20317109 0.29503712
00000000: adaf 3abe f97f 95be c936 573e 8cb7 1ebe
00000010: ef67 30be fc6a 2bbe 0f59 453e 6e0a 39be
00000020: 8815 973e 16dc ff3d e022 3d3e 0d75 623e
00000030: 8605 933e 49a4 a13e 150c 503e 1b0f 973e
